…
475/475 [==============================] - 2s 5ms/step - loss: 0.0077 - val_loss: 0.0576
Epoch 100/100
475/475 [==============================] - 2s 5ms/step - loss: 0.0076 - val_loss: 0.0582

In [95]: bigger_model7.summary
Out[95]: <bound method Model.summary of <tensorflow.python.keras.engine.sequential.Sequential object at 0x1ab08c5b0>>

In [96]: bigger_model7.summary()
Model: "sequential_22"
_________________________________________________________________
Layer (type)                 Output Shape              Param #   
=================================================================
dense_56 (Dense)             (None, 300)               171600    
_________________________________________________________________
dense_57 (Dense)             (None, 300)               90300     
_________________________________________________________________
dense_58 (Dense)             (None, 300)               90300     
_________________________________________________________________
dense_59 (Dense)             (None, 300)               90300     
_________________________________________________________________
dense_60 (Dense)             (None, 1)                 301       
=================================================================
Total params: 442,801
Trainable params: 442,801
Non-trainable params: 0
_________________________________________________________________

In [97]: bigger_model8.summary()
Model: "sequential_24"
_________________________________________________________________
Layer (type)                 Output Shape              Param #   
=================================================================
dense_66 (Dense)             (None, 300)               171600    
_________________________________________________________________
dense_67 (Dense)             (None, 300)               90300     
_________________________________________________________________
dense_68 (Dense)             (None, 300)               90300     
_________________________________________________________________
dense_69 (Dense)             (None, 300)               90300     
_________________________________________________________________
dense_70 (Dense)             (None, 300)               90300     
_________________________________________________________________
dense_71 (Dense)             (None, 1)                 301       
=================================================================
Total params: 533,101
Trainable params: 533,101
Non-trainable params: 0
_________________________________________________________________

In [98]: bigger_model9.summary()
Model: "sequential_25"
_________________________________________________________________
Layer (type)                 Output Shape              Param #   
=================================================================
dense_72 (Dense)             (None, 600)               343200    
_________________________________________________________________
dense_73 (Dense)             (None, 600)               360600    
_________________________________________________________________
dense_74 (Dense)             (None, 600)               360600    
_________________________________________________________________
dense_75 (Dense)             (None, 600)               360600    
_________________________________________________________________
dense_76 (Dense)             (None, 1)                 601       
=================================================================
Total params: 1,425,601
Trainable params: 1,425,601
Non-trainable params: 0
_________________________________________________________________

In [99]: chosen_model = bigger_model7

In [100]: test_results = chosen_model.evaluate(test_boards, test_labels)
146/146 [==============================] - 0s 726us/step - loss: 0.0649
…
2021-04-07 14:40:30.958737: W tensorflow/python/util/util.cc:348] Sets are not currently considered sequences, but this may change in the future, so consider avoiding using them.
INFO:tensorflow:Assets written to: saved_model/2021-04-07-model/assets

In [109]: new_model = tf.keras.models.load_model('saved_model/2021-04-07-model')

In [110]: new_model.summary
Out[110]: <bound method Model.summary of <tensorflow.python.keras.engine.sequential.Sequential object at 0x1ab5c4970>>

In [111]: new_model.summary()
Model: "sequential_22"
_________________________________________________________________
Layer (type)                 Output Shape              Param #   
=================================================================
dense_56 (Dense)             (None, 300)               171600    
_________________________________________________________________
dense_57 (Dense)             (None, 300)               90300     
_________________________________________________________________
dense_58 (Dense)             (None, 300)               90300     
_________________________________________________________________
dense_59 (Dense)             (None, 300)               90300     
_________________________________________________________________
dense_60 (Dense)             (None, 1)                 301       
=================================================================
Total params: 442,801
Trainable params: 442,801
Non-trainable params: 0
_________________________________________________________________

In [112]: new_model.evaluate(test_boards, test_labels)
146/146 [==============================] - 0s 755us/step - loss: 0.0649
Out[112]: 0.06490730494260788

In [113]: soft_bigger_model7 = keras.Sequential([
…
